model_critic.pth (torch_old, 435484 bytes, 7 tensors)

fcs1.weight f4 [256, 33]
00000000: 8474 d0bc c7ef e3bc b459 613d f010 dcbc
00000010: b002 c7bc 1189 d139 a114 273c 7791 113c
00000020: 35a3 953d f703 b0bc 6af4 1f3c b760 693d
00000030: 5503 a93d b408 b4bd 8dbb 2f3e cbfb e13d
00000040: fa52 26bd 87f1 053d 24a9 673d c29d a03a
00000050: c251 2637 307b 283b 1a57 25bd d8af 16bc
00000060: beaa 023c ca9d 973d 7fdb da3d fa6b 0a3d
00000070: 01c2 f9bd 9511 0100 c765 0abd 28a5 0080
00000080: 0eef 073c f2df 863d 14f3 e1bd 6154 303d
00000090: 5942 873d 4f86 9c3c 8c46 c5bd aefb be3d
000000a0: 1309 b8bb d333 9f3c c39b b5bd 27fe 4ebc
000000b0: 0ae9 fb3c c0c9 7e3c fbc7 1ebe 2cdb 8e3e
000000c0: 4443 c8bd b896 303d f45d 95bc f5fb 96bc
000000d0: ed17 16bb 5a95 de3c f0b3 c23c bc80 063b
000000e0: 0068 6fbb 9636 053d a958 b6bb edc3 ba3d
000000f0: b3a7 80bb 6a2f 893d d263 0100 b3a7 803b
00000100: 2e9b 0200 b2ba 803d 6a55 50bd 83bc 963d
00000110: d743 a5bc f415 acbb 35b7 783c b552 2dbc
00000120: d4f5 123c 4edf 593d 15c5 433b 74e5 cfbc
00000130: 3f20 a23c 4511 d23b b0d4 41bc 2ef8 6bbd
00000140: bbe5 bf3d 7bdd a6bd fd10 2cbc cbfd dcbc
00000150: 9720 99b9 62b6 5a3d 1287 9cbc f452 55bd
00000160: cdea 8dbc 4f10 5fbd 11aa 5d3d c1ae 08bd
00000170: 5986 8f3d 8a3b 7b3d 2c4f 263d 3eb1 0200
00000180: bd49 7bbd 5b52 0100 1bd7 62bd 8c8b babd
00000190: 3e3e e83c f11e 1a3e 5e43 93bc 479c 00bd
000001a0: f0a5 13bc 7e4c 52bc 779b 9fbc 982e ecbc
000001b0: dc2e 07bd 41ae 40bc ac44 04bd a1fa a13d
000001c0: 52f6 c63d 4c88 d4bb 25cf 10be cca0 243d
000001d0: 95b5 023d 4342 45bb 844f 9abb c501 f23c
000001e0: faad 233c 373d df3b 409a 2a3d b6b2 30bc
000001f0: ebb7 8d3d 08f5 32bc ec5f dc3d 26f8 4e3c
00000200: 1cc7 0100 5f3c dcbd 0a71 0080 b5c1 943e
00000210: 9d23 e1bc 1d0e 9f3d 00aa 113d b52e 80bd
00000220: 7cc2 613a c320 aabc 95e1 883c dd81 2e3d
00000230: 631f 0dbd 434b 01bd 6c75 13bd e045 63bb
00000240: 72cb 02bd a477 dbbd ac09 013d 3697 ffbb
00000250: df86 443d 4cca 15bd e775 98bb f7e0 0cbd
00000260: b9e7 a6bc 0a11 ba3d e198 1bbc 8361 bcbd
00000270: feb3 973c f5ee 5d3d a932 e33d 92b1 cf3d
00000280: 67c2 aabd 8532 0280 a2c8 cfbd 0e22 0100
00000290: 00c3 b0bd 5d42 963d c9d5 9e3d 5e83 3dbc
000002a0: 1fff 4bbc ca46 0bbc eb00 323d 5a57 a0bc
000002b0: 3dca 363c ceb8 433c 07ee 9f3c 42e1 8ebc
000002c0: 68c2 243b 161a a6bb 3daf 46be 4201 bbbd
000002d0: 863c b2bc 0a50 74bc 7874 f7bc 7c88 f5bb
000002e0: 13be 283c c3e3 0c3c 76cd 213b 2fd2 123d
000002f0: 13a9 7dbc bb17 ffbc 3843 cf3b e322 9d3d
00000300: 183e 013e 3e6d 98bc fbe1 0000 1816 01be
00000310: 4260 0100 0903 ca3d d74e bfbb 8cac 413c
00000320: e584 703a d8c4 7ebc 1204 48bb 7701 5ab8
00000330: 684e 31bb 87d2 203c 5184 26bb 70d8 043a
00000340: 833b ce3b b713 603b 2a4b 8c3b 2fed 21bb
00000350: 7a54 193c 0769 86bb 83da 81ba fa36 3ebb
00000360: 7ea2 dfbb b007 62bb 3f2a 8e39 eeaf 84ba
00000370: 9ffb e03a 0172 b4bb 9874 a4ba e943 4cba
00000380: 0bac 8f3b 824d af3c d984 263b 085a 0180
00000390: 824d afbc 7ae6 0080 2a2e f1bb e4cb 47bd
000003a0: 71ee 233a 25e1 c4bd 36e3 fdbc 4931 3eba
000003b0: 0d00 6dbb 9ced 02bb 5187 d6bb cfc6 88b9
000003c0: d353 713c d45c 3c3d c59d 6b3c e9d3 063c
000003d0: 6f2e b0bc 249a cc3d 5f0c c13c 1628 01bb
000003e0: 9f87 5cbc f9b3 b23b ea1a af3b fc61 60bd
000003f0: 8b9d 36bd 40db 38bd 8cf1 b83c 4a4a 2cbd
-0.025446184 -0.027824296 0.05501719 -0.026863545 -0.024293274 0.0003996571 0.010197789 0.008884779
0.0730652 -0.021486266 0.009762863 0.056977 0.08252589 -0.087907225 0.17161389 0.11034354
-0.040606476 0.03270104 0.05655779 0.0012254047 9.913407e-06 0.002570819 -0.04036627 -0.009197198
0.007975278 0.07403143 0.10686397 0.03379438 -0.121952064 9.8143e-41 -0.03378847 -5.9247e-41
0.008296741 0.06585683 -0.110326916 0.04304922 0.06604452 0.019107012 -0.096325964 0.09325348
-0.005616316 0.019433891 -0.088676 -0.012633837 0.03075077 0.015551031 -0.15505974 0.2790159
-0.09778455 0.043112487 -0.018233277 -0.01843069 -0.0022902444 0.027170826 0.023767442 0.002052351
-0.0036530495 0.03252276 -0.0055647683 0.09119401 -0.0039262413 0.06698497 1.27644e-40 0.0039262413
2.39339e-40 0.06285609 -0.050862707 0.073601745 -0.02017395 -0.0052516405 0.015180399 -0.010578801
0.008969743 0.053191476 0.0029872109 -0.025377966 0.019790767 0.00641075 -0.011830494 -0.05760973
0.093699895 -0.08147713 -0.010502097 -0.026976487 -0.00029206715 0.05339659 -0.019107375 -0.052081063
-0.017323876 -0.054458912 0.054117266 -0.033369783 0.07008047 0.061336078 0.040602848 2.47254e-40
-0.06134962 1.21379e-40 -0.05538092 -0.09108648 0.028349992 0.15050866 -0.01797646 -0.031399038
-0.009011731 -0.01283562 -0.019483311 -0.028830811 -0.033003673 -0.011760295 -0.032292053 0.07909132
0.097149506 -0.0064859744 -0.1414152 0.04019241 0.03191145 -0.003009931 -0.004709186 0.02954186
0.00999021 0.0068127173 0.04165101 -0.0107847955 0.06919845 -0.010922678 0.10760483 0.012632405
1.63262e-40 -0.10753702 -4.0551e-41 0.29054037 -0.027482802 0.07766364 0.035562515 -0.06258909
0.0008612049 -0.020767575 0.016709128 0.042604316 -0.03445376 -0.031565916 -0.036000654 -0.00346791
-0.0319323 -0.10716179 0.031503364 -0.007800008 0.047980186 -0.03656988 -0.004652727 -0.03439423
-0.020374166 0.09085281 -0.009496898 -0.091982864 0.018518444 0.054182965 0.11093647 0.10141291
-0.083378606 -2.01794e-40 -0.101456895 1.04052e-40 -0.08630943 0.073368765 0.0775562 -0.011566965
-0.012450962 -0.008500764 0.043457907 -0.019572902 0.011156616 0.011945916 0.01952268 -0.017441396
0.002514029 -0.0050690277 -0.19402786 -0.09131099 -0.021757375 -0.014911661 -0.030206904 -0.007493077
0.0102992235 0.0085992245 0.0024689115 0.035844978 -0.015482205 -0.031139245 0.006325152 0.0767267
0.12621343 -0.018606778 8.1067e-41 -0.12606084 1.26366e-40 0.0986386 -0.005838256 0.011820924
0.0009175076 -0.015549861 -0.0030520004 -5.1976614e-05 -0.002705479 0.009815819 -0.0025408457 0.0005067652
0.0062937154 0.0034191438 0.004281421 -0.0024708023 0.00935852 -0.0041018757 -0.000990704 -0.0029024468
-0.0068247905 -0.0034489445 0.00027115826 -0.0010123232 0.0017164833 -0.0055067544 -0.0012546955 -0.0007792102
0.004384523 0.021399263 0.0025408773 -1.24133e-40 -0.021399263 -8.268e-41 -0.0073602395 -0.04877843
0.0006253487 -0.096132554 -0.030992132 -0.0007255269 -0.003616336 -0.0019978052 -0.0065468927 -0.00026088065
0.014729458 0.045986965 0.014380877 0.008229234 -0.021506516 0.099903375 0.02356547 -0.001970773
-0.013460069 0.0054535833 0.0053437846 -0.054780945 -0.04458384 -0.045130968 0.022576116 -0.042063035

fcs1.bias f4 [256]
00000000: ed42 0abd 4ba8 803b 404d 7bbd 2d7b dabd
00000010: 6ebd cfbd be1f 02be 834d afbc bf59 82bd
00000020: 6c2b 92bd 796f 1dbc 6aef a4bd 72fa 2dbc
00000030: 708d f5bb 51ed cebc 31b9 90bd 316a 9dbd
00000040: e350 d9bd ea9c afbd da42 27bd 37b5 a2bd
00000050: 2813 90bd 0f4b 40bd 538c b4bc 9f54 96bd
00000060: f9a7 59bd 6a77 87bd e88e b5bd 205b 4fbd
00000070: 7fbc f03c 1d83 a5bc bbbe 71bd e6f8 86bc
00000080: 1a58 16bc acad abbd 1c25 0ebc 0fec 75bc
00000090: 271a b3bd eae5 a3bd c11a 31bd a4f1 cfbc
000000a0: 36c1 31bd 22c9 97bc aa04 c3bd 08b5 c3bd
000000b0: 0f75 c7bd 7ffc a0bd ecd6 2bbd 2c73 1abd
000000c0: 6755 bebc ed25 b2bc feba 7bbd 9163 77ba
000000d0: 2d0a b0bc 340a b0bc 5bbf 13bd 5884 bb3c
000000e0: 2d35 cd3c 5681 82bd 1d04 afbd 9cfe a6bd
000000f0: d49a 09bd 1539 f4bd f0fe 8bbd 25fd bebd
00000100: 8e4b 72bd d7bd 43bd 129c 59bd 2f83 703d
00000110: 434d b4bc 7602 93bd c8c4 6bbd 6410 0fbd
00000120: 41e3 a4bc 5ee4 d9bd 0ea2 a2bd b7fb 9fbd
00000130: 9589 593b c18f a3bd d71d 87bc b6b3 58bd
00000140: 221f 81bd ee26 c0bd 24a6 cbbc c919 9dbc
00000150: 96f4 6dbd f052 97bd a7f6 06bd afee 94bc
00000160: c5f7 39bd ff0f 7cbd ae6c adbd cf18 56bd
00000170: d72f 50bd ed31 afbc 4e9c 7dbd 58fe 56bd
00000180: 5675 9ebd 6e4c 44bd fe00 713c 5374 c9bd
00000190: ef44 87bd 9af4 663c 353a e8bd 7a89 dbbc
000001a0: 32af 10bd 5952 80bd 53bd 35bc 0940 67bd
000001b0: c061 5dbd c10d 94bc 0697 7fbd 57c8 3bbd
000001c0: 47a3 68bd b143 43bd c82a 4ebc 64ed b0bd
000001d0: 073e cbbd c8a6 27bd 0340 28bd 856d 21bd
000001e0: c23e b2bc 996e 77bd 1c16 8abd 8917 a5bd
000001f0: 43e9 32bd a0f7 94bd 17fb 35bd b05a a4bd
00000200: f99b 243c 1681 c2bd 50ec 4dbc 361d cdbd
00000210: 109e 72bd 0dd1 c5bc 1305 6cbd 8f7c 4abd
00000220: 7a76 c2bc fd94 c3bd 62dd 80bb 182a d4bd
00000230: c3a9 79bc 7556 9abd cf4c adbc 0576 acbd
00000240: ce7d 87bd a8db 9dbd 2a16 33bc 311e 3bbd
00000250: e27a 76bd da4b acbd d7ca 84bd d776 f4bd
00000260: b8c4 6f3d b0f7 c4bc 7ffa 4cbd faf8 9c3a
00000270: 9548 97bd a537 55bd 6de5 75bd 8a49 4cbc
00000280: 90f4 25bd 434f 5fbd 1c59 88bd ac6a 9ebd
00000290: f896 53bc 65b0 a7bd da86 c0bb aa7c 20bd
000002a0: 815c c9bc b68d f7bc d631 c1bc 52b1 d1bc
000002b0: c71e a1bc bbfa 82bc 3a91 4ebd ebd5 99bc
000002c0: 8497 23bd a3db 4dbd 240a a4bd aef9 20bd
000002d0: ff3f 88bc 4042 f1bc b968 94bd e5bc 91bd
000002e0: fd7b b7bd c3a1 4ebd 4c4d 4ebd 93b5 6abc
000002f0: ee4f 6abd f3cd c2bd 82b4 88bd f6ff 0dbd
00000300: c681 86bd 1073 bbbc 9a2f 9fbd 76b7 b5bd
00000310: 28ab 3bbd 1ea9 81bd e6bf 98bd f6e0 c2bc
00000320: ac0e 50bd 15d2 b0bc 5f4d 20be 6d68 dfbc
00000330: 361b b4bd c7fc eebd f986 09bd a234 033c
00000340: d977 b0bd 00bc 2dbc 7e5c 79bd 1c50 34bc
00000350: 5b9d a9bd ca30 973c 1d00 dfbc 685d f8bc
00000360: dde8 5fbd f05a 59bd dc9a 89bd 9a04 f6bd
00000370: 3089 b6bd d23f a0bc 696b 41bd 5c62 60bc
00000380: 83c0 56bd eb0c b1bc 23c6 94bd b2a9 0bbd
00000390: f1ab adbc 9e43 a5bd c211 d7bc ef00 91bd
000003a0: ff82 b9bd 1fdf e9bd 0fee 02be fa58 99bd
000003b0: de15 10bd 9d35 0abe 0b16 fdbd 0efa 77bc
000003c0: ad95 dbbd e767 74bd bdfe b8bc 597f 6ebd
000003d0: 013a 93bd 9f62 e1bc ffd2 9bbd a9a4 34bc
000003e0: ed66 15bd d384 ecbc 7928 89bc 2aa3 0fbd
000003f0: 915d a0bd e419 ccbd 307b 79bd 9f7e 89bd
-0.03375523 0.003926312 -0.06135297 -0.10668025 -0.10143553 -0.12707421 -0.021399265 -0.06364774
-0.07137188 -0.009609097 -0.08053477 -0.010618793 -0.0074936673 -0.025259646 -0.070665725 -0.0768627
-0.10611131 -0.08574851 -0.04083524 -0.0794472 -0.07034904 -0.04694658 -0.022039568 -0.07340359
-0.053138707 -0.06614573 -0.08865148 -0.050624013 0.029386757 -0.020204121 -0.059019785 -0.016476106
-0.0091762785 -0.08382735 -0.00867584 -0.015009894 -0.087452225 -0.08002837 -0.043238405 -0.025383778
-0.04339715 -0.018528525 -0.09522374 -0.09556013 -0.09739124 -0.0786066 -0.041953012 -0.037707493
-0.023234082 -0.0217466 -0.061457627 -0.0009437139 -0.021489227 -0.02148924 -0.036071163 0.022890255
0.02504977 -0.06372325 -0.085457064 -0.08154032 -0.03359492 -0.1192495 -0.06835735 -0.09325627
-0.059154086 -0.047788467 -0.053127356 0.058718856 -0.022009498 -0.07178204 -0.057560712 -0.03492774
-0.020127894 -0.10639261 -0.07941066 -0.07811683 0.0033193578 -0.07986403 -0.016493721 -0.05290576
-0.06304766 -0.09382425 -0.024859495 -0.019177334 -0.058094583 -0.07388866 -0.03295007 -0.01818022
-0.045402307 -0.061538693 -0.08467995 -0.052269753 -0.050826874 -0.021386111 -0.061916642 -0.052488655
-0.07737224 -0.04792445 0.014709709 -0.0983664 -0.06604945 0.0140964035 -0.11339227 -0.026798952
-0.03532333 -0.062657066 -0.011092502 -0.056457553 -0.0540483 -0.018072965 -0.062399887 -0.045845356
-0.05679634 -0.047671977 -0.012583442 -0.08639029 -0.0992394 -0.04093054 -0.04107667 -0.039411087
-0.02175844 -0.06040821 -0.06742498 -0.080611296 -0.043679487 -0.07273793 -0.04442891 -0.0802511
0.010046952 -0.094972774 -0.012568548 -0.10015337 -0.05923277 -0.024147535 -0.057622027 -0.049435195
-0.023738135 -0.09549902 -0.003932641 -0.10359591 -0.015238228 -0.075360216 -0.02115479 -0.08420948
-0.06615792 -0.07707912 -0.010930577 -0.04568309 -0.060175784 -0.08412905 -0.06484001 -0.119367294
0.058537215 -0.024043888 -0.05004358 0.0011976056 -0.07386891 -0.05205502 -0.06003325 -0.012468705
-0.040516436 -0.05451895 -0.06657621 -0.0773519 -0.012914412 -0.081879415 -0.0058754506 -0.03918139
-0.024580242 -0.03021894 -0.023583334 -0.025597248 -0.019667996 -0.015988698 -0.050431468 -0.018778762
-0.03993942 -0.05025829 -0.08009747 -0.039300613 -0.016632078 -0.029450536 -0.07246537 -0.07116107
-0.08959196 -0.050447237 -0.050366685 -0.014325517 -0.057205133 -0.09511938 -0.06675054 -0.03466793
-0.06567721 -0.022882015 -0.07772751 -0.08872883 -0.045817524 -0.06331085 -0.07458477 -0.02378891
-0.050795242 -0.02158455 -0.15654515 -0.027271474 -0.087942526 -0.11669307 -0.033575986 0.008008154
-0.08616609 -0.010603905 -0.060879223 -0.011005428 -0.08281966 0.018455882 -0.027221734 -0.030317977
-0.054665435 -0.05306524 -0.0671899 -0.120125964 -0.08912885 -0.019561682 -0.047221575 -0.013695326
-0.052429687 -0.021612605 -0.07264354 -0.03409738 -0.021200152 -0.080695376 -0.026253585 -0.07080256
-0.09058189 -0.1141951 -0.12786125 -0.07487674 -0.035177104 -0.13497014 -0.1235772 -0.015135301
-0.10721908 -0.0596694 -0.022582406 -0.058226917 -0.07188798 -0.027512847 -0.07608604 -0.011025586
-0.03647511 -0.02887193 -0.016742932 -0.035067715 -0.078303464 -0.09965876 -0.060908496 -0.06713604

fc2.weight f4 [256, 260]
00000000: e22f 653c af37 bdbc 68f9 463c 3ee6 15bc
00000010: 7af7 1cbc b767 b63d 45af 6dbb 1299 00bd
00000020: f51c 633d 3f43 8cb9 e2b3 853d b5eb 703c
00000030: af9d d0bc 287c 4bbd 05ba 39bd 6d40 a4bb
00000040: 0fbc e4bb b3b4 a4bc d4c4 efbc 05a2 16bc
00000050: f5bd 82bd 7da0 adbd 81b7 83bb b883 11bc
00000060: 4062 de3c 0930 883c f798 1b3c 60bd af3c
00000070: 737d 3b3b 500a d939 2bea 4dbd bbe0 c5ba
00000080: da95 1ebd 6cc9 06bd 6b6a a9ba b37a c23b
00000090: 5b21 abbd 19b9 03bd 04f5 edbc ea7f 863b
000000a0: 1bf6 9e3c 22bb 4abc de11 db3c ee7e 59bc
000000b0: 4ab6 96bc 1783 65bb 9241 363d 6601 0abc
000000c0: fbf9 b439 6581 6bbb 2ce4 463b 6624 74bd
000000d0: 5f65 9f3b 9f98 81bc 2b1b 8fbc 5a85 07be
000000e0: 8b15 80bd ebb6 6abb e8ea b2bd 7471 d53d
000000f0: d608 943c 99be 69bc da07 823d 74a0 2f3d
00000100: c0b9 96bd a873 4abc 2dc5 9cbc d1aa f6bd
00000110: 4b05 f5ba d6cc 5bbd 9c8f a53c e90a 93bc
00000120: 72d1 3ebb f7c1 df3c d718 963d ca8e 05bd
00000130: f497 8a3c bb4b efbc ae74 2839 dc2f f0ba
00000140: 3a2d 023d 72f1 e0bc e025 e33b 7503 e2b9
00000150: cd71 693c de2c ab3d df41 223b e8ef be39
00000160: f7ca cf3b e35b 833b a9af 04be f2bb 583c
00000170: 9bcf 1dbd 3652 44bb 8e5e 13bd 5264 af3c
00000180: cc04 bf3d 5f7d 49bd 65c0 9abd 39ee ba3d
00000190: 4e2b 8abb 3d32 4cbd 40b1 90bc 3d7d a73b
000001a0: b128 9bbd da9a 35bb 57d2 16bb ce96 5a3c
000001b0: c987 5c3c 1893 d7bd 004c 203d 2a0a 1fbb
000001c0: b038 e4bb 77aa d53d 7e22 67bd 5a62 2ebe
000001d0: f8f7 f5bc 9071 b73c c454 063e d629 37bc
000001e0: 5911 d838 421b 5d3d e790 8cbb 38c7 46bd
000001f0: cbb9 a0bc eeae 2ebc 607a a23d 0107 1a3c
00000200: 6c05 94bc 2b77 e23c 88bf 853b f75a 5e3d
00000210: f2d4 e5bb 7bec 0c3c 81f4 81bc 49dc 35bb
00000220: 4c91 cb3b 4577 353b f0a1 8fbd d641 4b3d
00000230: aedd 23bb 47a3 41bd 1835 06bc 6c9d a83c
00000240: 5e44 ab3a e9fa 343c 2a9b ebba 0087 96bc
00000250: 8daf 543d 893a 44bc 8e7b af3d 8d68 be3c
00000260: 885d 31bb 7797 50ba 7f20 2bbd b240 6e3c
00000270: e4f3 82bd 7b96 c3bc f1e1 4e3d bbb8 28ba
00000280: 1898 ac3a 24b6 63bc 20fa e6bd 2e69 59bc
00000290: 6b00 333a c537 fe3c 5ae7 6cbb 83f4 b33c
000002a0: ef6b 683b ae5b 963d a1c8 ee3b f140 18bd
000002b0: 653c 453a f1db 0f3b 1ebb 81bc 7704 7c3c
000002c0: 8f46 27bc 1900 043d cc25 e9bd f147 6e3b
000002d0: fea7 06bc 6172 1d3b a59e 0ebd 7163 713c
000002e0: 62a3 b83b 38b7 1b3d 88c1 2bbd ff82 993a
000002f0: 0c34 c93c 7c00 b73b d6ee e33d 9694 c4bb
00000300: 5214 97bd 2432 963a ba4a f13c 6b9d c6bd
00000310: 5e53 f9b9 7292 c43c a282 e5bc eb42 79bc
00000320: 594f 903d 97ae 4a3b 1abd a6bd 78f7 d1bb
00000330: fa9d 01bd 95c0 c03c fcfc 203c e016 c4bc
00000340: 2c7d 14bc 4890 383a eb2d cb3d fe8b 653b
00000350: 5e37 2dbc 5b0e af3d a65f a2bd f7ce 8d3b
00000360: 3948 3abb de3f 91bc 57dc 7ebd d171 3ebd
00000370: bba8 773c e1ba dd3b ec72 89bd 26bb 733a
00000380: d06d a1bd 053c 5d3c f52f 7f3d 57a5 13bd
00000390: 9bfd 433a ef38 43bb af5c cdbd 8361 3ebc
000003a0: 6a5c e03c ef92 76bc 2df8 9d3c de54 0bbc
000003b0: 85d7 143d fdc8 51bc f9cd 8cbb f19a 773c
000003c0: fc93 13bd 97a9 dbbc 8269 02bd 8027 193d
000003d0: b2d1 f7bc c8ec 8f3b 12e4 3ebd 269c 203a
000003e0: 67bc 0e3c a20a 0ebb bfa6 9fba 8134 96bb
000003f0: dedc c63b 7d2f b03d 7fff 443c 7d57 9c3d
0.013988467 -0.023097841 0.012144424 -0.009149132 -0.009580487 0.08906501 -0.00362678 -0.03139598
0.055447537 -0.00026752983 0.065284505 0.014704634 -0.025465814 -0.04967895 -0.045343418 -0.005012563
-0.006980426 -0.020105695 -0.02926866 -0.009193902 -0.06383888 -0.08477876 -0.004019678 -0.008881502
0.027146459 0.016624467 0.009496919 0.021452606 0.002860871 0.0004139715 -0.050272148 -0.0015096882
-0.03871713 -0.032906935 -0.0012925392 0.005935037 -0.083559714 -0.032158945 -0.029047497 0.004104604
0.019404462 -0.0123737175 0.026741918 -0.013274891 -0.01839747 -0.0035020763 0.044496126 -0.008423185
0.00034518525 -0.003593528 0.0030348403 -0.059605025 0.0048643793 -0.015819846 -0.01746901 -0.13234463
-0.06254109 -0.0035814594 -0.08736211 0.1042203 0.01807062 -0.014266633 0.06349154 0.04287763
-0.07359648 -0.012356676 -0.01913699 -0.120442994 -0.0018693594 -0.053662144 0.02021008 -0.017949538
-0.0029116538 0.02731417 0.073289566 -0.032606877 0.01691816 -0.029210916 0.00016065195 -0.001832481
0.031781413 -0.02745888 0.0069320053 -0.00043108655 0.014248324 0.08358167 0.00247585 0.00036418368
0.006341334 0.0040087565 -0.12957634 0.013228403 -0.038528066 -0.0029956228 -0.035978846 0.021410141
0.09327087 -0.04919183 -0.075562276 0.091274686 -0.004216588 -0.0498526 -0.017662644 0.005111365
-0.07576121 -0.0027710707 -0.0023013556 0.013341619 0.013460108 -0.10526103 0.03913498 -0.0024267533
-0.0069647655 0.10432904 -0.05642938 -0.17029706 -0.030025467 0.022393018 0.13118273 -0.011179408
0.00010302914 0.053981073 -0.0042897346 -0.048529834 -0.019619843 -0.010661824 0.079334974 0.009401084
-0.018068992 0.027644714 0.00408167 0.05428597 -0.0070139105 0.008601303 -0.015863659 -0.0027749708
0.006212389 0.0027689498 -0.07013309 0.049623333 -0.0025003958 -0.047274854 -0.0081913695 0.020582877
0.001306664 0.01104615 -0.001797532 -0.01837492 0.05192523 -0.0119768465 0.08568488 0.023243213
-0.0027063806 -0.00079571403 -0.041779038 0.014541792 -0.06394175 -0.023875466 0.050508443 -0.00064362184
0.0013167886 -0.013898406 -0.11278176 -0.013269706 0.00068283704 0.031032452 -0.0036148638 0.021967178
0.0035464724 0.07341705 0.0072871004 -0.037171308 0.0007523953 0.0021951164 -0.015836295 0.015381924
-0.010209694 0.032226656 -0.11384162 0.0036358798 -0.008218763 0.0024024474 -0.034819264 0.014733181
0.005634711 0.038016528 -0.041932613 0.0011712014 0.02456095 0.0055847745 0.11129539 -0.005999158
-0.07376923 0.0011459035 0.029454578 -0.09697994 -0.00047555094 0.023995612 -0.028016392 -0.015213708
0.07046384 0.0030926818 -0.08141537 -0.0064076744 -0.0316448 0.02352933 0.009825941 -0.023936689
-0.009063046 0.00070405426 0.099208675 0.0035026069 -0.010572283 0.0854766 -0.079284 0.0043276506
-0.0028424396 -0.01773065 -0.06222185 -0.046495263 0.015115912 0.0067666625 -0.06711373 0.00092976016
-0.07882273 0.013503079 0.062301595 -0.036046352 0.000747645 -0.0029788574 -0.100274436 -0.011619928
0.027387816 -0.01504968 0.019283378 -0.008504121 0.036338348 -0.012804267 -0.004297015 0.0151126245
-0.0360298 -0.026814265 -0.0318389 0.037391186 -0.030251358 0.00439224 -0.046604224 0.00061267836
0.008711911 -0.0021673818 -0.0012180432 -0.0045838957 0.00606881 0.08602808 0.012023806 0.076338746

fc2.bias f4 [256]
00000000: ae91 bebd 7f5b 023d 3725 1fbe a59f afbc
00000010: 6bde 92bc 9432 cabc 5d6c 31bc fea8 f8bb
00000020: 33c2 5cbc 2b4e 84bc ebc7 0bbd 148b 26bc
00000030: 6bc6 06bc 909f 113d f7b4 d0bc 6e9e 21bc
00000040: bf6e 48bc ae09 bbbc 41ae 59bd 7447 cbbb
00000050: dd62 aabd dcc3 29bc 42e2 99bc 0ef8 4bba
00000060: e403 bcbb 70e0 30be bc66 00be 44e9 8fbc
00000070: 35df a2bb 67f8 8abc eb7f b2bd a0d7 c4bd
00000080: b162 62bc 6f64 68bc b471 bdbb 6566 74bc
00000090: c819 d1bd 6e22 10bc 0923 e2bb 73bc 2bbc
000000a0: b7a6 82bc ff0e 58bc 627a 13be c16a a7bb
000000b0: 2308 68bc 75d6 a5bc 0aa3 713e 3fcc 1dbd
000000c0: 0768 28bc e30a 713d d2bb 38bb 1367 3ebc
000000d0: 86ba 65bc fb28 35bc 36d8 1cbc 7840 393e
000000e0: 74ad 7ebc ffae 2abd 1c08 23bc f856 d9bb
000000f0: 3801 61bd faf5 f7bb d4b4 8cbc c2a1 01bc
00000100: 0d5e e6bd b6f4 11bc 62bb 36bc b799 3abc
00000110: d13d d6bc e641 20bb dae0 a6bd 441f 9bbc
00000120: 7fca 313d c149 e3bc 9ec7 28be d25b 9fbc
00000130: 227b 3dbd 07a1 2bbc 689c 62bc 8c47 38bd
00000140: 21cd 01bd 141a 92bd 554e a3bb 46a3 2bbc
00000150: 81d1 9dbb 3ff2 16be 7288 bebb 3c51 a9bc
00000160: e15b fdbb 88b8 80bd b269 bdbb 661d 5bbc
00000170: c5ac 84bd adb6 04be 9152 5bbd fd13 45bc
00000180: eaa3 a7bc 04e8 b6bc ce33 43bc 4eea 8ebc
00000190: 047a 12bc 18ae b3bd d620 34bc b4fa 34bc
000001a0: ce2c d6bb b914 09bc ce6a a3bc 5466 7dbc
000001b0: c37d f4bb 815b abbc d91e 4bbc 2f73 f7b9
000001c0: 9d65 2abe 7542 bdbd d5cf 8e3c 308d 9bbd
000001d0: c8a8 debc 0b26 34bc 2685 57bd 5627 81bc
000001e0: efed e6bc 5b08 cb3d 7f4c 82bc 9326 febd
000001f0: 3357 973b 76d9 3ebc e303 33bc 4af2 7fbc
00000200: b8e1 7fbc 4455 acbb 0a78 d6bc 93ee 90bd
00000210: 148d 22bc b5af 80bc e809 8ebd 8a47 a3bc
00000220: 7d31 b3bc 993e f3bd 4983 63bc 7a51 40bc
00000230: 0521 a3bc 203f 5fbc 568d 043b 6701 eebb
00000240: db1f 98bd bc45 51bc 8816 37bc 14b2 54bc
00000250: bd96 d9bc 617d cabc 21ba 18be 9335 03bc
00000260: c054 62bc c414 30bd 287a e1bc 578c 04bc
00000270: 9584 cfbd ffbe 82bc aeb4 c93c 096c 38bb
00000280: b6fe 24be 2a58 d8bd af0d acbb f1a2 efbb
00000290: 2f3b 85be 2fb1 813d 5ab1 20bc bc8f 67bc
000002a0: 6d02 6abc 684b 2cbc ed01 babc ae6a ebba
000002b0: a08b bfbc 8336 adbc f624 63bc 1d55 de3c
000002c0: b920 efba a472 683e 149c 8cbc 652a ddbd
000002d0: 25d8 1fbd d17e 4dbc 10be adbc 30dc b4bb
000002e0: 57d8 5dbc 98da cc3d 5790 dbbb 58a3 77bd
000002f0: 372a a7bc 26bd 58bc a8ed e13b f579 bcbc
00000300: 6137 58bc e5e8 d9bb 03d2 f3bc 2cd5 40bd
00000310: 5627 febb 47ab 02be fad8 14be ab54 00be
00000320: a689 21bd c060 ddbb 4cac d8bb e6db 08be
00000330: b307 bbbc 9cae f8bb 7c75 59bc 0ee6 9dbd
00000340: 1095 0ebd 4783 f6bb 839e b4bc 6a6b 69bc
00000350: 6f0b 1cbb 96ce c7bc d51e bebc c056 523d
00000360: 4661 a83c 4622 e8bd e9f0 89bc 92f5 27bc
00000370: bdf6 7bbc c343 5bbc f650 70bc 91fe 8dbc
00000380: d08a b5bc d6b2 91bc abd1 88bc 48da 49be
00000390: fc56 e0bd 21fa 9dbc 4766 a8bb 567a c1bc
000003a0: 481b a2bc 1a42 d8bc e4c7 8cbd 77c8 54bc
000003b0: 7809 59bc c622 873c 43e8 043d b2a9 163d
000003c0: 8c67 3cbd 1516 6abc d9e8 4cbc 53fc 29bc
000003d0: 4a7b b1bc 4d49 bcbb e77d 163e ff1a c4bd
000003e0: 7d20 84bc 73f9 19bd 11dd 14be 5049 34bb
000003f0: 7b25 4abb 67f4 90bc e608 bcbc 11ca bbbc
-0.0930513 0.03182554 -0.1554154 -0.02143843 -0.017928323 -0.02468232 -0.0108290585 -0.007588505
-0.013474035 -0.016150555 -0.034126204 -0.010164995 -0.0082260175 0.03555256 -0.025476916 -0.009864433
-0.012233435 -0.022831764 -0.053144697 -0.0062035862 -0.08319638 -0.010361638 -0.018784646 -0.00077807985
-0.0057377685 -0.17273116 -0.1253919 -0.017567284 -0.004970456 -0.01696415 -0.08715805 -0.0961144
-0.013817475 -0.0141841015 -0.0057813767 -0.014916991 -0.102099955 -0.008797271 -0.006901149 -0.0104819415
-0.015948636 -0.013187169 -0.14402154 -0.0051091616 -0.014162096 -0.020243863 0.2359735 -0.038524862
-0.010278708 0.058848273 -0.0028188122 -0.0116212545 -0.014021521 -0.011057134 -0.009573033 0.18090999
-0.015544284 -0.041670796 -0.009950664 -0.006632682 -0.054932803 -0.0075671645 -0.01717607 -0.007912101
-0.112484075 -0.008908441 -0.011153074 -0.011389188 -0.026152523 -0.002445334 -0.08148356 -0.018935807
0.043406006 -0.02774513 -0.16482398 -0.019452963 -0.046260007 -0.010475404 -0.0138312355 -0.044990107
-0.031689767 -0.0713388 -0.004983703 -0.010475939 -0.0048162346 -0.14740847 -0.0058146054 -0.020668618
-0.0077319 -0.062851965 -0.005780422 -0.013373708 -0.06478266 -0.1296031 -0.05354554 -0.012028691
-0.020463903 -0.02232743 -0.011914207 -0.01744571 -0.008940224 -0.0877344 -0.010994157 -0.0110461
-0.006536103 -0.008366757 -0.01994839 -0.015466291 -0.007461281 -0.020917656 -0.012397491 -0.0004719733
-0.16640325 -0.09241191 0.017433086 -0.07595289 -0.02718009 -0.010995398 -0.052617215 -0.015765827
-0.028189627 0.09913703 -0.015905617 -0.12409701 0.0046185493 -0.011648526 -0.01092622 -0.015621731
-0.01561778 -0.005259188 -0.026180286 -0.070767544 -0.009921331 -0.015708784 -0.06935483 -0.019931573
-0.021874184 -0.11877174 -0.013886281 -0.0117381755 -0.019913206 -0.01362589 0.0020225844 -0.0072633508
-0.07427951 -0.012772974 -0.011174805 -0.01298191 -0.026561135 -0.024717988 -0.14914753 -0.008008379
-0.013814151 -0.042988554 -0.027524069 -0.0080901 -0.1013271 -0.015960215 0.024622288 -0.0028140566
-0.1611279 -0.10563691 -0.0052506546 -0.0073131253 -0.26021716 0.06332623 -0.009807909 -0.01413339
-0.014282805 -0.010516025 -0.022705996 -0.001796087 -0.023382008 -0.021144157 -0.013863793 0.027140195
-0.0018244005 0.22699982 -0.017164268 -0.10799102 -0.03902449 -0.012542442 -0.021208793 -0.0055194125
-0.013540349 0.10002631 -0.0067005563 -0.06045851 -0.020405872 -0.01322869 0.006894786 -0.023007372
-0.013196797 -0.0066500776 -0.029763227 -0.047078297 -0.007756154 -0.1276065 -0.14535895 -0.12532298
-0.039437912 -0.0067559183 -0.0066123363 -0.13365135 -0.02283082 -0.0075891744 -0.013272639 -0.07709895
-0.034810126 -0.0075229737 -0.02204824 -0.014246801 -0.0023810526 -0.0243905 -0.023208061 0.051352262
0.020554196 -0.11334662 -0.016838508 -0.01025142 -0.015378651 -0.013382855 -0.01466774 -0.0173333
-0.022160918 -0.017785471 -0.01670154 -0.19712174 -0.10954091 -0.01928431 -0.0051391455 -0.023617905
-0.0197884 -0.026398707 -0.068740636 -0.012987248 -0.013246886 0.016496073 0.032448065 0.036782928
-0.045997187 -0.014287491 -0.012506687 -0.0103751 -0.021665234 -0.005746043 0.14696465 -0.095754616
-0.016128773 -0.03759141 -0.14537455 -0.0027509518 -0.0030845094 -0.017694665 -0.022953462 -0.022923501

fc3.weight f4 [128, 256]
00000000: 834c 85bd e365 563c cb91 0ebd f899 3fbb
00000010: 9f62 653c 13eb b23b f4d9 8a3a 0e65 12bb
00000020: 7224 8839 e654 ba3b ce97 db3c 3b53 38ba
00000030: fd16 0d3b acc7 27bd 4963 b83c 3428 523b
00000040: adbc 4ebb deb8 963b 18ce f4bb d142 90b9
00000050: c3a6 b9bc 534c 9e38 5fdd 883b 2041 96b9
00000060: a0e0 3dba 4db5 d5bd ba74 69bd c426 8dbb
00000070: 0e6f 8939 8530 bdb5 d2e2 2e3b aea4 4cbd
00000080: 442e 313c a243 babb 1dfd 673a a5b3 beba
00000090: b391 abbc d310 bcb8 e77e 78b9 e658 b439
000000a0: c119 45bb 2a46 49bb 51c2 93bd 7131 00b9
000000b0: e946 a9bb 3af1 85bb 73c7 1e3c 6509 05bd
000000c0: a387 ee3a 8bc5 c63d bbfa a338 1b8d 023b
000000d0: 93ef 3b3c 654a bf3a 52d0 0dba 039a a13c
000000e0: 537a eb3b aca8 8cbd bd1a de3a b242 4239
000000f0: 3886 8dbc 4d54 063a faac cb3a 6780 8e3b
00000100: 7a33 6bbd 2078 1bba 489e 023b 449f 0abb
00000110: 0c22 c43a f718 db38 13b4 efbc a2b9 c93a
00000120: 1921 4c3c 2469 82bd c2cf a1bd 6f32 abba
00000130: d42c 19bd 0a34 4bba dd8a 1cba 4225 3dbd
00000140: 351b cc3a a26e 33bc fa9c 48b8 d4e0 8a3b
00000150: cd78 5f37 d940 59bb 866a 6d39 432a 91ba
00000160: 959d 50ba bb04 1f3c fe3f afbb aea2 8a3b
00000170: 5b5f 0abc 12b8 7fbd a367 8ebd c305 533a
00000180: 9a89 403b 0ea0 8cbb 8668 51b9 76ac 9abb
00000190: 217d 2fbd 256a bbbb 8306 99b9 8bce 17bb
000001a0: 4261 acba 1416 9c3a 9dc8 1cbc c24c dc3c
000001b0: 6934 fc3a 5972 6b3b 2175 a338 81e7 a138
000001c0: 2c59 8fbc 14cf 89bb fef2 51bd 85c6 943d
000001d0: 92f8 f1ba 5e64 14ba 453e 8dbd c730 283c
000001e0: 9049 ca3b ab6a fd3c 0705 bbbb ed74 e4bb
000001f0: a354 3bbd 607b a13a 1abc 91ba f7ec 50ba
00000200: e117 d5b7 b2ea a13a 9987 3339 9717 10bd
00000210: 1f29 f2ba 28f6 f4bb 931b edbd 6014 41bb
00000220: 945f ff3b 4b78 b3bd 6ef9 62bb e066 52ba
00000230: 7df8 623a db8d 54bb df5e 48bd 97a7 4f3a
00000240: ae14 f8bd a7b3 ea3a fe60 acba ae60 1d3a
00000250: efef d0ba 28fd 293c 12de cfbd 4891 07bb
00000260: 46ac fcb9 3faf f03c 4b9a 47bc dd4f 45ba
00000270: 8073 59bd 789d 14bc dad0 35bd 6519 7139
00000280: 28fc cb3c 7c69 3abd 17a8 20b9 cacd db3a
00000290: 53f2 d9bd 6e91 e3bd 04a3 9a3a caa5 9dbb
000002a0: 7383 8534 2a08 aeb9 fe42 d439 0257 e7b7
000002b0: d7a1 003c 8939 db39 ef24 843a 3ba4 2f3c
000002c0: 1c2d db39 abd3 0dbc 77a3 b5ba de47 04bd
000002d0: 2ddd 9eba bc1a c6ba b40f 18bb 0f24 01b9
000002e0: 353a 0abc cbc8 2fbe d81c 65b9 7a05 a6bd
000002f0: f350 4d3b fb80 8b3b b725 013d c944 cb3b
00000300: cc09 293b d382 5bba 0e07 4bbd 3a81 9f3c
00000310: b8a0 b23a bc35 12be a238 75bd 8646 3ebd
00000320: 7a87 af3b 4719 153a 35d7 d939 649b e0bb
00000330: 67f8 d83b b64c 71ba 21d6 1a3b f97d 0bbc
00000340: 58e2 5dbd fbd6 e3b9 c3a3 f13a ec6f 06bb
00000350: d99b 173a 279a 403c 51b3 453b 73c1 a4bc
00000360: 7cff bfbd 5922 d9bd 33a5 a4ba fc49 4a3a
00000370: 189c f839 4f84 eaba 487b 883a e1b6 9e39
00000380: bc1a c93c 6679 fa3a e90c 26bb 0d91 263d
00000390: be5d 0cbd 1ddc 66ba 3078 a839 13c8 613c
000003a0: d296 e93b 1b76 09bb fa31 a7bc c5c3 e638
000003b0: f0f7 afba 776f 6bbc e73f 0abb a61d 873c
000003c0: 2710 6dbd ff3d c9ba 47cc 8038 0f77 f038
000003d0: 328f fb3b a5f8 0eb8 3f54 afbb 5c79 32bb
000003e0: 54b7 d6b9 e2d8 913c d5be 51bd 06b8 91b9
000003f0: 927c b739 4579 5339 e31d b7b8 6dd5 973b
-0.06508734 0.013085815 -0.034807008 -0.002923606 0.014000564 0.005460152 0.001059352 -0.0022338065
0.00025967095 0.00568639 0.026805785 -0.0007031445 0.0021528595 -0.040961906 0.02250828 0.003206742
-0.0031545565 0.0045996746 -0.0074708574 -0.00027515602 -0.022662526 7.5482436e-05 0.00417678 -0.0002865875
-0.00072432496 -0.10434971 -0.056996085 -0.0043075997 0.00026213418 -1.4095718e-06 0.0026685488 -0.04996174
0.010814253 -0.005684332 0.00088496675 -0.0014549388 -0.020943498 -8.967672e-05 -0.00023698398 0.0003439851
-0.0030075165 -0.0030711987 -0.07214797 -0.0001222545 -0.005165924 -0.0040875943 0.009691107 -0.032479662
0.0018198382 0.09705647 7.819148e-05 0.0019920531 0.011470693 0.0014594315 -0.0005409765 0.019726759
0.007186213 -0.06868109 0.0016945224 0.00018526128 -0.017275915 0.0005124256 0.0015539222 0.004348803
-0.05742214 -0.0005930681 0.0019930769 -0.0021152059 0.001496376 0.00010447384 -0.02926067 0.0015390406
0.012459063 -0.0636771 -0.07900955 -0.0013061295 -0.037396267 -0.000775159 -0.000597162 -0.04617811
0.0015572073 -0.01095167 -4.782991e-05 0.0042382274 1.3319962e-05 -0.0033150224 0.00022641764 -0.0011075217
-0.0007958052 0.009705718 -0.0053482046 0.0042308187 -0.008445586 -0.062431403 -0.06953361 0.000804987
0.0029378892 -0.004291541 -0.00019970731 -0.004720266 -0.04284394 -0.0057194405 -0.00029187286 -0.002316388
-0.0013151544 0.0011908435 -0.009569314 0.02689207 0.0019241694 0.003592631 7.794263e-05 7.720199e-05
-0.017498575 -0.004205594 -0.051257126 0.07264427 -0.001846092 -0.0005660708 -0.068966426 0.010265536
0.00617332 0.030934652 -0.0057073864 -0.0069719465 -0.045735013 0.0012320094 -0.0011118681 -0.0007969881
-2.5402698e-05 0.001235327 0.00017121284 -0.035178747 -0.001847539 -0.007475633 -0.11577525 -0.0029461607
0.007793376 -0.087631784 -0.0034633535 -0.0008026194 0.00086582435 -0.0032433185 -0.0489186 0.0007921396
-0.12113319 0.0017906324 -0.0013151465 0.0006003481 -0.0015940646 0.010375299 -0.101497784 -0.002068596
-0.0004819354 0.029380439 -0.012182782 -0.0007526854 -0.053088665 -0.009070747 -0.04438863 0.00022993011
0.02490051 -0.045510754 -0.00015321407 0.0016769704 -0.10641923 -0.11111723 0.001179785 -0.0048110234
2.4868822e-07 -0.0003319395 0.00040485704 -2.7577862e-05 0.007851086 0.00041813802 0.0010081808 0.010720308
0.00041804544 -0.008656423 -0.001385792 -0.0322951 -0.0012120359 -0.0015114169 -0.002320272 -0.00012315832
-0.008436729 -0.1716644 -0.00021849887 -0.08106513 0.0031328767 0.004257319 0.03153011 0.006203268
0.0025793193 -0.00083736813 -0.049567275 0.0194708 0.001362822 -0.1427831 -0.059868462 -0.046453975
0.0053567262 0.00056876655 0.00041549807 -0.0068544615 0.0066214087 -0.0009204851 0.0023626166 -0.008513921
-0.054170936 -0.00043456987 0.0018435646 -0.0020513488 0.0005783416 0.011755503 0.0030166695 -0.020111775
-0.09374902 -0.106022544 -0.001256144 0.0007716713 0.00047418545 -0.0017892214 0.0010412717 0.00030272364
0.02454888 0.0019109666 -0.0025337285 0.040665675 -0.034269087 -0.0008806603 0.00032133004 0.013780612
0.007128575 -0.0020974937 -0.020409573 0.000110037196 -0.0013425332 -0.014369837 -0.0021095218 0.01649363
-0.057876732 -0.0015353559 6.141565e-05 0.00011466268 0.0076769823 -3.4087006e-05 -0.005350619 -0.002723298
-0.0004095385 0.017803613 -0.051207382 -0.00027793663 0.00034997292 0.00020167704 -8.731687e-05 0.0046335966

fc3.bias f4 [128]
00000000: d132 503e c427 263e 8383 86bc 04f3 ab3e
00000010: ef4d 59bc 2080 d2ba 0e5c 04bb 20b9 84ad
00000020: f39a a2bb 2878 32ba 7388 543e 5fc5 c43d
00000030: a406 20bc b0f7 833e 1f0f c93d 04d0 54bb
00000040: 1e8b 6ebb 5513 9c3e f0e4 813e ae32 cf3e
00000050: fd24 7e3e 0500 e7af fca1 35bb 9bb3 1bbb
00000060: 1b91 78bb dc1d 773e 2e2e b2ba f039 82bb
00000070: 63ac 3fac a3cc 0bbc edb2 f4bb cd1a 09ba
00000080: 2573 21af a0d8 33b0 c51a b6b0 de9f fd3d
00000090: 771d 03b9 323f 0cb0 851f 06b3 e204 363e
000000a0: d234 fc3c 9843 03bb 39d2 f1b7 3b14 05b6
000000b0: 68dc 98b6 a3d8 cfb8 31be a83e c78a 36bb
000000c0: 21e4 0ebb fd1e 893e 6876 e4b2 d807 edba
000000d0: 56cc b5b9 0ad2 95b5 3cd4 a93e b647 5fbb
000000e0: 7318 163e 578e 0da5 494f e2b3 004f b93e
000000f0: e14c a03e 6837 683e 56d3 4bb8 9c91 cdb3
00000100: 72c5 263e 3805 86bd 14b2 cbb8 2137 48b1
00000110: f720 ad3d 614d 6abc 3cfd 9fb6 cc73 99b5
00000120: b37c cfa9 2eff bcbb 7679 3dbb c18a ccbb
00000130: de9b e2ba 62e8 923e 5176 de3e eec8 79b8
00000140: afae 04bb 40cf 3bb4 dcbe c23e 09d2 b2b9
00000150: 7684 633e c228 44bc 525e 3aab 0420 963e
00000160: 405f deb9 0516 d2b8 36e3 9a3c e4ff b9b7
00000170: 1ed0 a73e 4115 14b9 ae7a 51bb 3be2 46b9
00000180: 52c9 5fb8 d099 0cba fe69 d9bb 58de daad
00000190: 94dc a73e 2add d1ab 26a6 99b7 0f30 44ba
000001a0: c548 a6b5 1d23 20a2 de63 d8ba 3ad2 24bb
000001b0: 1e9b 559e ff33 e5b8 f080 05bb 2767 2fb0
000001c0: 3472 29bb 6ea0 413e c821 7cb5 c90c 503d
000001d0: 6af1 b8b4 907a b6aa 3aa6 09b0 af80 bd3e
000001e0: cb28 9fbc dd3d feac 4128 93b0 b57b 24b4
000001f0: aa62 0dad 2708 b53d 37a1 70a6 9255 883e
0.20331885 0.16226107 -0.016420132 0.33583844 -0.01326321 -0.0016059913 -0.002019647 -1.5088875e-11
-0.004962319 -0.0006808066 0.20755176 0.09607958 -0.009767208 0.25774908 0.09817337 -0.003247262
-0.0036398838 0.304835 0.25369978 0.40468353 0.24818797 -4.201867e-10 -0.0027714958 -0.0023758176
-0.0037928286 0.24132484 -0.0013594085 -0.003974192 -2.7238426e-12 -0.008532676 -0.0074676187 -0.0005230129
-1.4683772e-10 -6.5427663e-10 -1.3249851e-09 0.12384008 -0.0001250411 -5.102151e-10 -3.1227973e-08 0.177753
0.030786905 -0.0020029303 -2.8827331e-05 -1.983032e-06 -4.5556117e-06 -9.910881e-05 0.32957605 -0.0027853714
-0.0021803456 0.26781455 -2.6596538e-08 -0.0018084003 -0.00034675252 -1.1162495e-06 0.33169734 -0.0034069843
0.14657764 -1.2278027e-16 -1.0538367e-07 0.36193085 0.31308654 0.22677386 -4.8595793e-05 -9.5725426e-08
0.16286257 -0.06543964 -9.712964e-05 -2.9135168e-09 0.08453553 -0.014300675 -4.7680496e-06 -1.143309e-06
-9.2142785e-14 -0.0057677245 -0.0028911508 -0.0062421267 -0.0017288884 0.2869292 0.43449643 -5.9553357e-05
-0.002024572 -1.7491129e-07 0.3803624 -0.00034107294 0.22218499 -0.011972608 -6.621137e-13 0.293213
-0.00042414106 -0.00010017682 0.01890717 -2.2172877e-05 0.32775968 -0.00014122298 -0.0031963992 -0.00018967029
-5.3354837e-05 -0.0005363496 -0.0066349497 -2.4882471e-11 0.32785475 -1.4911729e-12 -1.831639e-05 -0.0007483968
-1.2389143e-06 -2.1702632e-18 -0.0016509255 -0.002514972 -1.13082036e-20 -0.00010929256 -0.0020371042 -6.381122e-10
-0.0025855424 0.18908855 -9.3926474e-07 0.050793443 -3.4448323e-07 -3.241474e-13 -5.007653e-10 0.3701224
-0.019428631 -7.2259824e-12 -1.0707099e-09 -1.5318695e-07 -8.03683e-12 0.088394456 -8.3485214e-16 0.26627785

fc4.weight f4 [1, 128]
00000000: e0a6 c03e 697a af3e 8861 38bb a9bd a53e
00000010: a531 593b a0f0 8fb9 ea81 6e38 5789 ddaa
00000020: 23d9 9e39 2fe2 2cb7 824e cd3e 3cf0 b33e
00000030: 39b5 25bb d3d3 a03e 778e bd3e 9753 b7bb
00000040: 2bc4 2b39 8df6 a93e 8a87 ad3e 4c6e bc3e
00000050: 2dcd b93e ab82 fb2e 3b46 69ba c69b 65ba
00000060: 67f6 853a e8de bc3e f262 33b9 c379 5e3e
00000070: 0f8a 2aa9 3a94 01ba f04e 773b efb9 0eba
00000080: ed20 93ad 4909 00ae afb5 70af 28b2 b63e
00000090: 812a 5e37 7623 8aae 5fa4 edb0 155a b83e
000000a0: 5b87 7e3e f784 213b 1c54 4fb7 22dd 62b4
000000b0: 86dc 72b6 6a48 fbb5 76fd 993e 60f7 c138
000000c0: 7831 0cba 3ec4 c73e 31cd 97b0 8e90 4c3a
000000d0: 1d2d bc37 0d73 d4b5 8671 ba3e ae81 bdba
000000e0: a104 53bf da6b e2a2 0343 11b3 53d5 9c3e
000000f0: 26b3 b83e 0608 b93e dcad f9b7 1174 4ab1
00000100: 2026 a83e 4dd2 cfbe b3c4 ceb6 7cd7 6fae
00000110: c0a1 0bbf 4d37 b53a ff73 66b5 ad10 c1b3
00000120: 2267 26a7 a7c1 923b 17ee ee39 76e3 e6ba
00000130: cf6c 90b9 8a20 cb3e 3339 b83e 7c9a 4eb9
00000140: a63d 03b9 2dd9 82b2 7cb8 b33e 13f9 8538
00000150: 7843 c13e 358f 6b3e ee2d ddaa 61cd 9c3e
00000160: cef9 b6b7 52bb 5ab8 768e b4be f130 4db8
00000170: 2f19 843e f62d 83b8 4314 23bb 7194 6ab8
00000180: ec1c b8b7 2c10 e2b7 d58f 93bb 594b 99aa
00000190: 1117 a13e c7f2 50a9 1e10 70b7 a53e 8a39
000001a0: 7120 e7b4 2f0a 1521 02af 1b3a 21a0 1dbb
000001b0: e679 0e1e 0c0c a3b7 245e 48b9 4f2b 31ae
000001c0: 0742 a4ba 9160 ae3e 02c3 10b5 4bc3 b23e
000001d0: 2141 ccb2 3ba6 2ca8 b878 26ad 27ae b73e
000001e0: 0fc6 af3e fdad f1aa 8e4b 63af 8a73 e5b1
000001f0: 94d1 14aa ca31 a73e 22d0 aea2 2e65 b13e
0.37627316 0.3427308 -0.0028134305 0.32371262 0.0033141163 -0.00027454365 5.6864614e-05 -3.9352785e-13
0.00030297888 -1.0304661e-05 0.4009896 0.35144222 -0.002528502 0.3141161 0.37022755 -0.0055946815
0.00016380909 0.33195916 0.3389247 0.368029 0.3628935 1.143737e-10 -0.000889871 -0.0008758869
0.0010220528 0.36888814 -0.0001710763 0.21726136 -3.786733e-14 -0.0004943047 0.003773626 -0.00054445764
-1.6726587e-11 -2.9112077e-11 -2.189242e-10 0.35682797 1.3242127e-05 -6.2818126e-11 -1.7290737e-09 0.36006227
0.24856322 0.0024645904 -1.2357745e-05 -2.1128338e-07 -3.6189172e-06 -1.8722033e-06 0.30076188 9.249034e-05
-0.00053479476 0.39016908 -1.1045015e-09 0.0007803523 2.2432354e-05 -1.5828715e-06 0.36414737 -0.0014458203
-0.8242894 -6.1371615e-18 -3.382139e-08 0.30631503 0.3607418 0.36138934 -2.9764073e-05 -2.9460845e-09
0.32841587 -0.40590134 -6.162177e-06 -5.4533697e-11 -0.54543686 0.0013825685 -8.5850473e-07 -8.990296e-08
-2.3093036e-15 0.0044786516 0.00045572288 -0.0017615396 -0.0002754689 0.39673263 0.3598114 -0.00019703241
-0.000125161 -1.5232752e-08 0.35101688 6.388328e-05 0.37746787 0.23003848 -3.9289356e-13 0.30625442
-2.1812415e-05 -5.2149706e-05 -0.3526494 -4.892139e-05 0.25800464 -6.255128e-05 -0.0024883903 -5.5928194e-05
-2.1947977e-05 -2.694883e-05 -0.00450323 -2.7230543e-13 0.3146291 -4.6395854e-14 -1.4308867e-05 0.00026368085
-4.3050707e-07 5.049664e-19 0.0005938859 -0.0024051743 7.5426254e-21 -1.9436724e-05 -0.00019108556 -4.0283606e-11
-0.0012531885 0.3405805 -5.3927954e-07 0.34914622 -2.3778343e-08 -9.5839635e-15 -9.4628125e-12 0.35875055
0.34330794 -4.2930928e-13 -2.0672372e-10 -6.6779124e-09 -1.3217753e-13 0.32655174 -4.7383164e-18 0.34647506
