model_actor.pth (torch_old, 39729 bytes, 4 tensors)

fc1.weight f4 [256, 33]
00000000: 7529 afbe b4ba 713d cd17 2a3e 0c6c 113c
00000010: 3d1c 73bd 8d7b fe3d 9239 89bc c057 973d
00000020: de7e 90bd 0700 32bd 1d7b d1bd ca6c a1bd
00000030: 6f87 cebd 0596 533d c6a5 1fbe 8caa 32be
00000040: f2c6 be3c 8a04 86ba b3d9 d53c 867a eb3b
00000050: 900f adbc 1576 103c 585e 00be 53c6 32be
00000060: e24d 8ebd be45 03be fb09 653e faa6 c83d
00000070: 3b11 20be f01e d6bb 3d9b 30bd 78c8 0d3c
00000080: bf4c 73bf cedb 2b3e 8a82 0a3e 209b 2bbd
00000090: ba45 bd3d dc6d 5f3d 8601 eabd 4006 dbbc
000000a0: b104 33bd 474b ff3d 8477 82bc 5cfc a33d
000000b0: a565 79be 1511 8fbd c17b 39bd 0f39 22be
000000c0: c54f 263b 348a 8c3b 6102 9f3c fe56 da3c
000000d0: 65fb dbbd c53d 84bd 737a abbc 418a debc
000000e0: e109 b53d 8023 ed3d 7f8d be3b 236f 06be
000000f0: ee3f ac3d 7ff2 803e 08ff 5c3c 2c00 fbbc
00000100: 60b7 b5bc 131a dfbe 48eb 673e 603d 55bc
00000110: 1ef1 e23c f20d b0bd 64b8 94bc 975a a73d
00000120: f444 9cbd f2f5 febd eafa ca3d 645b ce3d
00000130: dc1b 1b3e 6e80 3cbe 41dc 403e 7a16 95bd
00000140: 106e 64bc 7137 83be a300 adbd 912a 9c3c
00000150: a2af 8dbd 8a2d cabb 2fd4 27bd b69c b73b
00000160: a96f 8fbd 0f14 0e3b 1ce6 5bbd 0cfa 9a3d
00000170: e123 0e3e 2400 813a 33f2 1f3d ecb3 93bc
00000180: d986 0abc 4e75 58bd 9d3f be3d 1e61 0b3e
00000190: 59dc e53d 0dc3 8dbd a260 cb3b ff94 d33d
000001a0: 9f56 09bc e101 87bd 7240 213e 88bd 93bd
000001b0: a45e a23e f6e2 a13e c7d8 38be b7d7 a3bd
000001c0: 89ed c6bd 9d25 c0bd 7c45 c3bc 5b7a 6fbc
000001d0: 6534 e83c dd0a ea3a 0add 10bd 8904 3ebe
000001e0: 83ad be3d 3a49 1aba 6f0d 273e 15f5 4c3d
000001f0: 5ca4 973d fc78 7ebd e867 0c3e 5c03 0f3e
00000200: 2860 b5bc d2fd 61be 90f4 3f3c 6487 0ebf
00000210: 29b7 463e 7284 17bd 29a2 cb3c 73b0 0a3c
00000220: d4c7 bfbd c27a 37bd 5930 373d 24d0 393d
00000230: e6e5 04bd f2e6 5e3e e023 853d e902 e1bd
00000240: bc81 16bd 96d4 47be 3301 b5bd a385 2fbe
00000250: d74c a63c cf97 90bc 1387 8dbc 1c72 4e3d
00000260: 5d43 063e 2109 c93c dbb1 513d fb47 1ebd
00000270: f8f5 35be 1970 5f3d 364b bb3c 3207 43be
00000280: 8b08 bb3d 7ed7 43bd f9f9 4c3e a091 88bc
00000290: c546 9ebc 4ce7 dfbb 1bf0 9e3d 9441 78bd
000002a0: 6b37 dd3c 366b 19bc 86fd 2fbe 37e2 d8bc
000002b0: e3fa 38be 17ce bc3b bb0e bb3d a698 8e3d
000002c0: 6a69 0a3d 1ae2 823c fd21 69bd 8217 953e
000002d0: 04f6 b83d 2877 8ebd 146e 39bd d416 0cbc
000002e0: cea7 1abc c92f 4b3e fffb a53e fd00 13be
000002f0: 7121 a23c 927c 7c3e 81b8 05bd db8d 633d
00000300: 138d 35be b8b6 273c b081 b1bc 4d0f e83d
00000310: 40ff 64bd 50bd 15bf 6b59 5ebd 65a7 74be
00000320: 8209 be3d bc46 b93d ae2d 843d c334 08bd
00000330: f7de 8a3d a5e0 843e a29f f4bd 2474 08bd
00000340: 4c1f 1bbd 5d72 0abe f3f6 8bbd 7419 babe
00000350: 9734 b4bc 55fd 07be 30d9 24be b5fc babc
00000360: 5630 9f3b 1c06 f2bd 9ddb 953d 778f ecbd
00000370: c2eb 2ebd 8c24 f4bd 2a70 ad3c 39a1 71be
00000380: 536d abbd 981a 2bbe ecb8 1f3e 4656 7a3d
00000390: c4d7 5e3e 68f2 93bc e93b 313e c883 6a3e
000003a0: c2d3 93bc 0b14 0e3d 077f d83c 30e7 9e3d
000003b0: 617f 153d 9f24 23bc 7f9d 523c 2125 4f3d
000003c0: cab2 4d3e a278 95bc e20f 82bd 3bec c33d
000003d0: f81f dc3d 5166 55be 12cf 00bc 40ee c639
000003e0: 2fd2 e43d 27a3 dabb d04e 6c3d f783 e6bd
000003f0: b0db 27bc 6fb3 db3d aa4e ba3b 2907 02be
-0.34211317 0.059015945 0.16610642 0.008875858 -0.059353102 0.12425909 -0.016751084 0.07389784
-0.07055448 -0.043457057 -0.1022856 -0.07882078 -0.10084426 0.05165674 -0.15590581 -0.17447871
0.023288224 -0.0010224741 0.026104784 0.007186237 -0.021125585 0.008817215 -0.1253599 -0.17458467
-0.06948449 -0.12819573 0.22367088 0.09797473 -0.15631573 -0.0065344498 -0.043116797 0.0086537525
-0.9503898 0.16783068 0.13526359 -0.041895986 0.09241815 0.05454813 -0.11426072 -0.026736379
-0.043705646 0.1246553 -0.01592613 0.08007118 -0.2435518 -0.0698568 -0.045284037 -0.15842079
0.0025377136 0.004288936 0.019410314 0.02665281 -0.10741309 -0.06457094 -0.020932412 -0.027165534
0.08839775 0.11579037 0.0058152075 -0.13128333 0.08410631 0.2518501 0.013488539 -0.03063973
-0.022182167 -0.4357458 0.22648346 -0.013015121 0.027702864 -0.0859641 -0.01815433 0.081715755
-0.07630339 -0.12449254 0.09911139 0.10076025 0.15147346 -0.18408367 0.1883402 -0.07279678
-0.013942257 -0.25628236 -0.08447387 0.019063266 -0.06918265 -0.0061699795 -0.04097384 0.005603398
-0.07003719 0.0021679436 -0.053686246 0.07567224 0.13880874 0.0009841961 0.03904934 -0.01803013
-0.008455002 -0.052846245 0.09289477 0.13611266 0.112236686 -0.069219686 0.006206588 0.10331153
-0.0083824685 -0.06592155 0.1574724 -0.072138846 0.3171283 0.3161847 -0.18051444 -0.08000129
-0.09713275 -0.09382174 -0.023836844 -0.014616574 0.028345296 0.0017856021 -0.03536705 -0.18556418
0.093104385 -0.00058855454 0.16313718 0.050038416 0.07404396 -0.0621271 0.13711512 0.13966125
-0.022140577 -0.22069481 0.011716023 -0.5567534 0.19405808 -0.036991544 0.024857597 0.00846492
-0.09364286 -0.044794805 0.044723842 0.045364514 -0.03244581 0.21767786 0.06500983 -0.10986883
-0.036744818 -0.19514689 -0.08838119 -0.17140822 0.020300312 -0.017650513 -0.017276322 0.050401792
0.13111635 0.024540486 0.051195007 -0.038642865 -0.17769611 0.054550264 0.022863012 -0.19045714
0.09132489 -0.04781293 0.20017232 -0.016671002 -0.019320855 -0.0068329927 0.0776064 -0.060609415
0.027003964 -0.00936394 -0.17186555 -0.026475055 -0.18064456 0.0057618725 0.09133669 0.06962709
0.033791937 0.015976954 -0.05691718 0.29119498 0.09031299 -0.06956321 -0.045270994 -0.0085503645
-0.009439422 0.19842447 0.3241882 -0.14355846 0.019791337 0.24656895 -0.03264666 0.055555206
-0.17729597 0.010236435 -0.021668285 0.113310434 -0.055907488 -0.5849199 -0.054284494 -0.23891981
0.09279157 0.09046695 0.06454025 -0.033253442 0.067808084 0.2595264 -0.1194451 -0.033313885
-0.037871644 -0.13520189 -0.06834211 -0.36347544 -0.021997733 -0.13280232 -0.16098475 -0.022825578
0.004858057 -0.118175715 0.073172785 -0.11550801 -0.042705305 -0.11921033 0.021171648 -0.23596658
-0.08370461 -0.16709363 0.15597886 0.061117433 0.21761996 -0.018059924 0.1730801 0.22901833
-0.01804531 0.034687083 0.026427759 0.07758939 0.03649843 -0.009957462 0.012854933 0.05057252
0.20087734 -0.018245999 -0.06350686 0.09566542 0.10748285 -0.20839812 -0.007861869 0.00037943013
0.11172902 -0.0066722813 0.05769235 -0.11255639 -0.010245249 0.107275836 0.005685647 -0.12698044

fc1.bias f4 [256]
00000000: c92f 07bc 7542 bf3d 5111 c5bd be9d 12bd
00000010: 8141 4a3e c5b3 6dbc d124 0a3d 71e6 133d
00000020: 6e25 f03d 548f 043e 94e7 253c abf2 a2bd
00000030: 783f 21bc f46b aabd 0ec0 653e a0bd f0bd
00000040: e569 743d 6c59 b0bd b958 bf3d 9e26 bfbd
00000050: 6998 893d 6f32 5abe 27e3 803d 9821 053e
00000060: 620b 3ebe 8429 31bd 4578 d83d ad32 acbe
00000070: fa5b ed3d d95a aa3c 5794 463e 0b65 fc3d
00000080: 8fc9 d3be 7275 b4be e9f5 d13d aff8 cd3c
00000090: 37d5 1b3e bed0 a93d 36ce 103e f21a f83d
000000a0: 15aa 85bd 9c16 ffbd 70f6 4c3d 60bb d8bb
000000b0: 546e fd3b 4560 84be 517b 243e 36ae e13c
000000c0: 5bff cf3d 0898 cbbd 9996 97be 9d52 2f3d
000000d0: 617d bdbc e8c9 8dbd aff0 dcbc ebba 6a3d
000000e0: 87c2 a93c 043e 7ebd 959d 9fbd bf41 3e3e
000000f0: 790f b7bd e2a4 5d3e a3ed 09be d10f 1b3e
00000100: 2772 04be 7429 b6be 1eb3 c83d 51b8 0c3d
00000110: dd8f 963d 9353 103e 150e 40be f1d1 d2bc
00000120: b223 02be 0a51 443d 73b9 febb 4b6c af3d
00000130: 3b8b da3c 44bf 31be 41c2 9b3e 8b66 e1bc
00000140: 1f79 b13d 5460 173d 66ac f33d e54c 553e
00000150: 1572 1b3e 410f e3bd 28ba 92bb 023e 553e
00000160: 3831 663e e4dd 253d dec1 2a3c cdbe c63d
00000170: 0121 98be 5979 aebe 14c4 d93c a894 4c3e
00000180: a412 c13d cbde a0bd 7771 473e 8308 c2bc
00000190: c47f debc 3400 bb3c 4113 1cbd 3127 d3bd
000001a0: e0fb 4ebe 2228 d43d f10b 41bd 1253 2a3e
000001b0: 2da1 773c e4f4 93bd 98df 0ebd e1ec 0b3d
000001c0: 0477 a53d c7fe 7ebd efa0 a73c 596e 7cbe
000001d0: 3804 d73d a903 82bd 61c9 1abd c127 cfbe
000001e0: 9a48 0abd 1416 843c 07ba 803d f2e3 4c3e
000001f0: 5029 e33d 4a80 fa3d 7370 613e 6b2b 823d
00000200: 177e da3c 6aea a73e 24e9 3abe 39b5 e5be
00000210: ebba b63d 791f 363e 2aec 08bd e8ae c7bd
00000220: 40da 6fbe b5a8 f23d 670c 5ebe 0a87 ce3d
00000230: 0f67 5b3e 902a 2abe d581 96bd 9453 4fbd
00000240: c8a1 40bd 8f35 c5bd b284 33bd 692b 293d
00000250: b057 973d de65 e13d 4444 283d d56e 0c3e
00000260: e0cf ebbd 0963 40be 5a61 3b3e 7b84 323d
00000270: 1a0f abbb 25bf 26be c417 4ebc 3005 debe
00000280: d5ac a53c a43f c2bd c9a7 b8bb bdcd 96be
00000290: d500 ae3d 3064 eebb a2d7 1c3e d16c fdbd
000002a0: 1f3d 333d 630f 8a3e e6bf 61be 1bab 053e
000002b0: 573a 953e 41a4 d53e 100e 523d 30db b73c
000002c0: 38a1 be3c afb8 883d 8375 363e 4b82 2dbe
000002d0: f307 1a3e 3d14 393d ee8b bfbc c712 e3bc
000002e0: 6b49 313e 2667 073e 0fcb e63d 14c9 423e
000002f0: f307 3e3d b24a a03d 2bd2 b5bd 06c0 76bd
00000300: a803 623e b4de ef3d edac a83e e949 96bb
00000310: d4b7 88bd 167b c53d d6b8 4abe cf0a 7abd
00000320: 5f48 993c 651b 063e 3ebd 503e d999 1ebd
00000330: ae79 323a e87b 6bbc ccb0 6e3e 4edb 84bc
00000340: 440e ddbd ca1f 0d3e c16e 513e 3ac5 10be
00000350: c3db 93bc c8aa debd f3ef e8bc de65 673e
00000360: 78a4 8a3d 7341 403e 40cf 72bd 3ff5 923e
00000370: 3ebb cf3d 2b01 02bc 8133 5fbe 1190 71bd
00000380: a80c 373e f333 e4bd fa8e 7cbe 1ff6 a33d
00000390: 47d1 b73c 07af 9b3d 9357 6dbc acd2 6c3e
000003a0: 05f1 423d 416c 09be 2349 cfbd fb6d 0e3e
000003b0: 940f 833c 8d10 df3d c2cf 0a3e b9c1 13be
000003c0: 3206 5e3d c4fd 3ebc 4708 8a3e 8677 75bc
000003d0: 15b9 1b3e 9c92 9f3d 953c c63d 77f5 633d
000003e0: b467 f7bb 2c9c 223c ee79 e53d 82c4 cebd
000003f0: 6505 113d 286c 0a3e 3996 7d3d b64e 7ebe
-0.008251139 0.093388475 -0.096224435 -0.035794966 0.1975155 -0.014508192 0.033726517 0.036108438
0.11725889 0.129453 0.010126013 -0.079564415 -0.009841792 -0.08321372 0.22436544 -0.11754918
0.0596713 -0.08610806 0.093430944 -0.093335375 0.06718523 -0.21308301 0.06293326 0.13001096
-0.1855903 -0.043252483 0.105698146 -0.33632413 0.11589809 0.020795273 0.19392525 0.1232396
-0.41364715 -0.35245854 0.10251982 0.025142996 0.15218054 0.082917675 0.14141163 0.121145144
-0.06526581 -0.12455484 0.05003971 -0.0066141337 0.0077340994 -0.25854698 0.16062666 0.02754889
0.10156127 -0.09941107 -0.29607084 0.042803396 -0.023131074 -0.06923276 -0.026970236 0.057307165
0.02072264 -0.06207086 -0.07793728 0.18579768 -0.08938498 0.21644929 -0.13469557 0.15142752
-0.1293417 -0.355785 0.09799789 0.034355465 0.073516585 0.14094381 -0.18755372 -0.025734873
-0.12708929 0.047928847 -0.007773572 0.08565577 0.026677718 -0.17358118 0.3042164 -0.027514717
0.0866568 0.0369571 0.11898117 0.20830114 0.15180238 -0.11086894 -0.004477758 0.20824435
0.22479713 0.040494815 0.010422198 0.09704361 -0.2971268 -0.34076956 0.026582755 0.19978583
0.094273835 -0.078549944 0.19476877 -0.0236857 -0.027160533 0.022827245 -0.0381043 -0.103102095
-0.2021327 0.10359217 -0.04713053 0.16633251 0.015114111 -0.072244436 -0.034881204 0.034161452
0.08079341 -0.062254693 0.020462481 -0.2465147 0.104988515 -0.06348354 -0.037789706 -0.40460017
-0.033760644 0.016123809 0.06285482 0.20008829 0.11091864 0.122315004 0.22015552 0.063559376
0.026671452 0.3279603 -0.18252999 -0.44864824 0.089223705 0.17785443 -0.03342835 -0.097501576
-0.234231 0.118485846 -0.21684419 0.100843504 0.21426032 -0.16617799 -0.07348982 -0.050616816
-0.047029287 -0.09629356 -0.04382772 0.041301165 0.07389772 0.11005758 0.04108073 0.13714154
-0.115142584 -0.18787779 0.18298855 0.043583374 -0.005220306 -0.16283853 -0.012578908 -0.43363333
0.020224014 -0.09484795 -0.005635236 -0.2945384 0.084962524 -0.007275127 0.15316632 -0.12374271
0.04375946 0.26964864 -0.2204586 0.13053553 0.29146072 0.41726878 0.051282942 0.022443384
0.023270234 0.066758506 0.17818265 -0.16944234 0.15042095 0.045185316 -0.023382153 -0.027718915
0.17313163 0.13222942 0.11269199 0.19022018 0.0463943 0.07826747 -0.08877977 -0.06024172
0.22071707 0.11712399 0.32944432 -0.0045864475 -0.066756874 0.096426174 -0.19797072 -0.061045464
0.018711267 0.13096388 0.2038469 -0.03872094 0.0006808293 -0.014372803 0.2330963 -0.016217854
-0.107937366 0.13781658 0.20452406 -0.14137736 -0.018049126 -0.10872418 -0.02843473 0.22597453
0.06769651 0.18774967 -0.05927968 0.28702733 0.101431355 -0.007934849 -0.21796991 -0.058975283
0.17875922 -0.11142721 -0.24663916 0.08005928 0.022438658 0.07601743 -0.014486211 0.2312724
0.047593135 -0.13420202 -0.101213716 0.13909142 0.01599864 0.10891829 0.13555816 -0.14429368
0.054205127 -0.011657182 0.2695944 -0.01498211 0.15207322 0.077916354 0.09679524 0.055654015
-0.007550204 0.00992493 0.11204897 -0.10096075 0.035405535 0.13517821 0.06191084 -0.24834713

fc2.weight f4 [4, 256]
00000000: 8e96 f0bd 9bf9 26bd afb5 81be e86f d03c
00000010: 3570 203d 44d9 9b3c a7cb 9bbe 46e4 9dbd
00000020: 8c6d a93d 1652 803d 7638 403d a9af 5e3e
00000030: d7f7 1a3e 3fe5 f9bd d9e6 64bd 5f42 a73d
00000040: eaaf 76bc e787 0cbf 8a07 c2bd 9358 68bc
00000050: 6e5a 2b3d d94a d1be 66ed 8d3d 48fd debb
00000060: cd76 7c3d 6cf4 59bd 9777 c53d 13f2 17be
00000070: 2c56 9abe 3ef5 8b3d f80c 57bd 7a66 a03d
00000080: a25b 143e 7bf1 173e 040f 1bbe 9ead bdbe
00000090: 3d43 98bd c41d 43bd 2d46 8f3d 93a6 56bd
000000a0: 96a6 023e 4237 38bd 4934 f8bd 65e6 e7bd
000000b0: 4add 613c f04f 063d fd61 983d 4746 b5be
000000c0: 3b78 90bc 8c02 57bd 1212 a7be a0bc 51bd
000000d0: 343d 4e3d d32c a43e 8729 bf3d a87f 86be
000000e0: 8e47 fe3d 2a5e cc3e 077f ad3d 8a93 10be
000000f0: efee dbbc 1038 ba3d b0e7 d23d 5184 3c3e
00000100: 4045 13be b8db b7be 0f92 06bc a9ac d8bd
00000110: f5b6 e7be 268c 08be 1bfa bdbe 4531 753d
00000120: fa96 2c3c f374 1b3d 1992 b8bc 75e8 ba3d
00000130: 5544 43be c285 16be 6027 fa3c 9f90 853e
00000140: 0f4c 003e ae58 eebd 7c07 f13d 161a a7bb
00000150: 29d2 76bc da26 c43d e649 803e d990 c6be
00000160: 70c5 c8bd ffae 03be 5297 bd3d 3ea6 b13d
00000170: f1e7 e0be 0bda 02be eb33 85bd 4f82 a13c
00000180: f276 8fbe 4ea6 46bd 2503 f13d 91ec 73be
00000190: 6911 80bd a469 f8bd 4271 fa3d 6c25 b9bd
000001a0: 6f5f 21be 6a63 b03d 13d8 193e 8307 8d3d
000001b0: e046 0bbf 6373 c6bc 908b a0be 388e 10be
000001c0: c652 983d c842 8b3e 86c1 743c 20fc d53e
000001d0: 2740 e73a 3ff1 a53e a960 9b3d b9db cd3d
000001e0: b8d4 8e3d 735d 9abe 5c2c 083d 5e2c 603c
000001f0: a7bc 2b3e c221 3bbe e789 a0bd afa2 e23d
00000200: df64 8f3e 2b8b 8fbd 69ac 6bbe 7367 28be
00000210: d4d7 993c c7e5 e63d 15a4 63bd a71f 293e
00000220: de96 5cbe c1a5 eebd b6e2 063f 1b65 a13d
00000230: df92 d63c 6c76 5bbc 7eed b5bd c18c 5c3e
00000240: 3f80 03be 685d febc 6ae4 13bd 0ab9 fe3d
00000250: e6f8 2b3d 09db 09be c30e b73c 9dcd 62be
00000260: 4ddf a83e 543a 973e bc39 06be a586 24be
00000270: 0964 a23d b6a2 4bbd cae0 51bd 92f1 f2bc
00000280: 25ce 55be 6d59 09be b3aa ce3d c111 ef3e
00000290: 7ef6 21be 5ac5 073d c6af 393e 75ae 953d
000002a0: 18fb 94be 4c64 923d eeea 84be bfed edbd
000002b0: 4e2d 11bd 2199 47be 1071 8b3e 0395 153c
000002c0: 1659 fbbc 5956 773e fdcc 11be ddcd f13c
000002d0: 1398 b03c fc9b 3bbd ebda 453d 6a45 533e
000002e0: 6fa6 513e f5cb 463e bfb3 04be 07d7 08bd
000002f0: bab9 873c 981d 3bbe 661f 8cbe 5a9b cd3d
00000300: 35b9 4bbd bfa0 7a3d dd31 513d 0bfb ac3d
00000310: 636b 49be 30e5 303c d07f e7bc f2a1 533e
00000320: 14d5 233e 25c1 13be 6068 873e ed3f 7fbb
00000330: 7f3a b2be b7bb 14be 9d38 073e 1a50 0ebd
00000340: 90e9 d53e 92c0 ba3d cce8 81be a185 41be
00000350: a0b1 f6bd e9ef 8cbc 966d da3d b25c 263b
00000360: db90 99bc 8ed4 dcbd 35b5 5d3c 100f f33c
00000370: c0ad a53d 362a dcbc 52a2 093c f711 6d3e
00000380: 5bbe 0cbd e544 193c d4ab 643d 56d8 9dbd
00000390: 1091 003d 57c4 293e 57be 3f3d e205 0aba
000003a0: 6425 f73d 4248 c53e 18e5 94bd 55eb 88bd
000003b0: 4329 013e adb4 773e cdf4 e53d cc0f 1b3d
000003c0: 0ab6 80be 14aa 223d 96fc 0dbd 416f dfbd
000003d0: 5965 e83d bfeb 9bbe 4daf 79bd 93d8 543e
000003e0: b12c 32be 3f89 ccbd 3440 1c3e 7006 ba3d
000003f0: f149 ad3e aaa7 193e ce74 2e3d 89b3 8ebd
-0.11747466 -0.040765386 -0.25333926 0.025443986 0.03916951 0.019024499 -0.30428812 -0.07709555
0.082728475 0.06265657 0.046928845 0.21746697 0.15133606 -0.12201928 -0.055884216 0.08166956
-0.01505659 -0.5489487 -0.09474094 -0.014181274 0.041834287 -0.40877417 0.06930046 -0.006805096
0.061636735 -0.053211614 0.096419506 -0.14838438 -0.3014387 0.068338856 -0.052502602 0.07832046
0.1448808 0.14838211 -0.15142447 -0.37046522 -0.074347 -0.04763581 0.06995807 -0.05240495
0.1275886 -0.044974573 -0.121193476 -0.11323241 0.01378567 0.032791078 0.07440565 -0.3540518
-0.017635455 -0.052492663 -0.32630974 -0.051205277 0.050351337 0.32065448 0.093340926 -0.2626927
0.12415992 0.3991559 0.08471494 -0.14118782 -0.02684733 0.09092724 0.10298097 0.1840985
-0.14381886 -0.3590982 -0.008213534 -0.10579807 -0.45256773 -0.13334712 -0.37104878 0.05986144
0.0105340425 0.03795333 -0.022530602 0.09126369 -0.19069035 -0.14699462 0.030536354 0.260869
0.12529014 -0.11638008 0.11769006 -0.0050995452 -0.0150647545 0.09577723 0.2505638 -0.38782385
-0.09803283 -0.12859724 0.09257378 0.08674286 -0.43926957 -0.1277849 -0.06504043 0.019715456
-0.28020436 -0.048498444 0.11768178 -0.23820712 -0.06253321 -0.12129524 0.122286335 -0.09040341
-0.15759061 0.08612712 0.15023832 0.06886198 -0.5440502 -0.024224943 -0.31356478 -0.14116752
0.07437663 0.27199388 0.014938718 0.4179392 0.001764302 0.3241062 0.07586796 0.100516744
0.06974167 -0.3014942 0.03324543 0.013682453 0.16771184 -0.18274596 -0.07838803 0.11066186
0.28006646 -0.07008966 -0.23014988 -0.16445713 0.018779673 0.11274295 -0.055576403 0.1651598
-0.21541926 -0.11652709 0.52689683 0.078806125 0.02619308 -0.013394933 -0.08883189 0.21538068
-0.12841891 -0.031050399 -0.036106504 0.12437637 0.041985415 -0.13462462 0.022345906 -0.22148748
0.32982865 0.29536688 -0.13107961 -0.16066988 0.079292364 -0.04971572 -0.051239766 -0.029656205
-0.20879419 -0.1341302 0.10091152 0.46693233 -0.15816686 0.033147193 0.18133458 0.07308666
-0.2909782 0.07148036 -0.25960487 -0.11617612 -0.035443597 -0.19492008 0.27234697 0.009129765
-0.030682128 0.24154033 -0.14238353 0.029517109 0.02155689 -0.045803055 0.04830448 0.20631948
0.20473646 0.19413741 -0.12959193 -0.03340819 0.016568054 -0.18273008 -0.27367705 0.100393966
-0.049737174 0.061188456 0.051072944 0.0844632 -0.19669871 0.01079683 -0.028259188 0.20667246
0.15999252 -0.14429148 0.2644682 -0.0038948015 -0.34810254 -0.14524733 0.1320519 -0.03474436
0.41779757 0.09118761 -0.25372922 -0.18898632 -0.12045598 -0.017204242 0.10665433 0.002538484
-0.01874583 -0.10782729 0.013531973 0.029670268 0.08089781 -0.026875596 0.008400517 0.23151384
-0.034361225 0.009354805 0.05582793 -0.077072784 0.031388342 0.16578804 0.04681238 -0.0005265159
0.120676786 0.3853169 -0.07270259 -0.06685511 0.12613396 0.24190016 0.11228333 0.037856862
-0.25138885 0.03971298 -0.034664713 -0.10909892 0.113474555 -0.30453297 -0.060958195 0.20785742
-0.17399861 -0.09987115 0.15258867 0.09083259 0.33845475 0.15005365 0.042591862 -0.06967837

fc2.bias f4 [4]
00000000: 3ef0 05bc 5fea ca3d 0e3c 3d3d d4cb ca3c
-0.008174954 0.09907984 0.04619985 0.024755396
